…
2018-11-30 17:51:23.169615: I tensorflow/core/common_runtime/gpu/gpu_device.cc:1097] Created TensorFlow device (/job:localhost/replica:0/task:0/device:GPU:1 with 14856 MB memory) -> physical GPU (device: 1, name: Tesla V100-SXM2-16GB, pci bus id: 0000:89:00.0, compute capability: 7.0)
preprocessing 30 word vocab
preprocessed words 20326 -> 2942
finish build model
__________________________________________________________________________________________________
Layer (type)                    Output Shape         Param #     Connected to                     
==================================================================================================
input_1 (InputLayer)            (None, 1)            0                                            
__________________________________________________________________________________________________
embedding_1 (Embedding)         (None, 1, 256)       753408      input_1[0][0]                    
__________________________________________________________________________________________________
reshape_1 (Reshape)             (None, 256)          0           embedding_1[0][0]                
__________________________________________________________________________________________________
input_4 (InputLayer)            (None, 82)           0                                            
__________________________________________________________________________________________________
concatenate_1 (Concatenate)     (None, 338)          0           reshape_1[0][0]                  
                                                                 input_4[0][0]                    
__________________________________________________________________________________________________
input_2 (InputLayer)            (None, 4096)         0                                            
__________________________________________________________________________________________________
dense_1 (Dense)                 (None, 256)          86784       concatenate_1[0][0]              
__________________________________________________________________________________________________
input_3 (InputLayer)            (None, 2943)         0                                            
__________________________________________________________________________________________________
concatenate_2 (Concatenate)     (None, 7295)         0           input_2[0][0]                    
                                                                 dense_1[0][0]                    
                                                                 input_3[0][0]                    
__________________________________________________________________________________________________
reshape_2 (Reshape)             (None, 1, 7295)      0           concatenate_2[0][0]              
__________________________________________________________________________________________________
lstm_1 (LSTM)                   (None, 512)          15990784    reshape_2[0][0]                  
__________________________________________________________________________________________________
dropout_1 (Dropout)             (None, 512)          0           lstm_1[0][0]                     
__________________________________________________________________________________________________
dense_2 (Dense)                 (None, 2943)         1509759     dropout_1[0][0]                  
__________________________________________________________________________________________________
batch_normalization_1 (BatchNor (None, 2943)         11772       dense_2[0][0]                    
__________________________________________________________________________________________________
activation_1 (Activation)       (None, 2943)         0           batch_normalization_1[0][0]      
==================================================================================================
Total params: 18,352,507
Trainable params: 18,346,621
Non-trainable params: 5,886
__________________________________________________________________________________________________
None
Epoch 1/1

1638/1638 [==============================] - 8s 5ms/step - loss: 8.4711
…
